…
/opt/conda/lib/python3.7/site-packages/torch/nn/modules/conv.py:443: UserWarning: Using padding='same' with even kernel lengths and odd dilation may require a zero-padded copy of the input be created (Triggered internally at  /opt/conda/conda-bld/pytorch_1634272168290/work/aten/src/ATen/native/Convolution.cpp:647.)
  self.padding, self.dilation, self.groups)
==========================================================================================
Layer (type:depth-idx)                   Output Shape              Param #
==========================================================================================
CRNN                                     [1, 128, 1628]            --
├─CNN: 1-1                               [1, 8, 57, 128]           --
│    └─Sequential: 2-1                   [1, 8, 57, 128]           --
│    │    └─Conv2d: 3-1                  [1, 8, 229, 256]          160
│    │    └─BatchNorm2d: 3-2             [1, 8, 229, 256]          16
│    │    └─LeakyReLU: 3-3               [1, 8, 229, 256]          --
│    │    └─MaxPool2d: 3-4               [1, 8, 114, 128]          --
│    │    └─Conv2d: 3-5                  [1, 8, 114, 128]          2,560
│    │    └─BatchNorm2d: 3-6             [1, 8, 114, 128]          16
│    │    └─LeakyReLU: 3-7               [1, 8, 114, 128]          --
│    │    └─MaxPool2d: 3-8               [1, 8, 57, 128]           --
├─RNN: 1-2                               [1, 128, 1628]            --
│    └─LSTM: 2-2                         [1, 128, 512]             3,039,232
│    └─Dropout: 2-3                      [1, 128, 512]             --
│    └─Linear: 2-4                       [1, 128, 1628]            835,164
==========================================================================================
Total params: 3,877,148
Trainable params: 3,877,148
Non-trainable params: 0
Total mult-adds (M): 436.59
==========================================================================================
Input size (MB): 0.23
Forward/backward pass size (MB): 11.56
Params size (MB): 15.51
Estimated Total Size (MB): 27.31
…
